example/models/dummy_model_full.pth (torch, 2446 bytes, 2 tensors)

weight f4 [2, 10]
0.27498713 -0.21069795 0.093990445 0.07636011 -0.16892377 0.006863922 0.20116684 0.14711434
0.30754557 0.09918365 0.3094292 0.01768741 -0.112766415 0.13280109 0.19285098 0.10352409
0.15858379 0.054965466 -0.30852115 0.12902164
00000000: 1dcb 8c3e 34c1 57be 107e c03d b062 9c3d
00000010: 5afa 2cbe c0ea e03b aefe 4d3e 24a5 163e
00000020: 9d76 9d3e cc20 cb3d 816d 9e3e 30e5 903c
00000030: 14f2 e6bd 02fd 073e ba7a 453e 7004 d43d
00000040: ca63 223e 7823 613d 7cf6 9dbe 401e 043e

bias f4 [2]
0.21132645 0.002447158
00000000: f665 583e 8060 203b
